models/saved/MLP_pytorch_HELOC_allRemoved.pt (torch_old, 2591 bytes, 6 tensors)

fc1.weight f4 [10, 22]
000000 06 fc a0 bd e6 21 f3 be 60 d1 b1 3d cc d9 0a 3e
       -0.0786057 -0.474868 0.08682513 0.13559645
000010 b2 fb ec be e7 91 8f be ee f6 9e 3d 25 15 6d be
       -0.46285778 -0.28041002 0.07761942 -0.23152597
000020 b8 30 7c 3e 93 87 79 3e 9e 03 42 3e 07 db d6 bd
       0.2462796 0.24368124 0.18946692 -0.10490995
000030 3e 61 ef bd b5 05 4b 3e 78 fc 36 bd 5e a5 9d bd
       -0.11688469 0.19826396 -0.044674367 -0.07697557
000040 3a dc a5 bd bb 86 b3 3e eb 35 16 be a4 7b 95 3e
       -0.080986455 0.3506373 -0.14669006 0.29195893
000050 04 94 e1 bd b4 2f 50 3e 07 a6 e6 bd 3f 38 8e 3e
       -0.1101456 0.20330697 -0.11262136 0.27777287
000060 47 5c d9 be 1b 78 9e 3c 69 89 91 3c 87 49 d9 3d
       -0.42453215 0.01934438 0.017765718 0.10609727
000070 5c 88 3a be f7 2f 03 3e 40 2f 44 be 3f 57 be bb
       -0.1821608 0.12811266 -0.1915865 -0.0058087404
000080 a3 8c eb 3d a7 0e 7d 3e 82 70 17 3e 37 08 5c be
       0.11501434 0.2471262 0.14789012 -0.21487509
000090 09 c3 13 3f 35 77 c7 3e 26 69 23 3f cf ff 3f 3e
       0.57719475 0.38958135 0.6383232 0.18749927
0000a0 d6 8c 9c 3e fc 01 8a 3d 0a 8f 8a 3d 44 94 2d 3e
       0.305762 0.0673866 0.06765564 0.1695109
0000b0 83 d5 6b 3e 21 fd 46 be c2 15 0b 3f f7 04 07 3e
       0.23030667 -0.19432499 0.54330075 0.13185488
0000c0 b1 66 bd be 31 00 84 be b9 7b 96 3e 59 03 69 bd
       -0.3699241 -0.25781396 0.29391268 -0.05688796
0000d0 07 83 94 3e 86 ae 3f 3e 9f ab b2 3d 5d 80 ef 3c
       0.29006216 0.18718919 0.087241404 0.029236013
0000e0 94 3b 99 3d 2f 0b 82 3e d5 2f 27 bf 21 a1 06 bf
       0.07482067 0.25399157 -0.6530736 -0.52589613
0000f0 90 dc a9 be 8f 07 97 bd 5d 13 b5 be 7a f6 6f 3e
       -0.33176088 -0.073744886 -0.35366336 0.23433867
000100 f2 1c 5c 3d 40 fa 28 3e fc 23 b7 3d 63 5c bd bc
       0.053738542 0.16501713 0.0894241 -0.023115342
000110 22 29 11 3f b7 9d 97 3e 59 fe 5a bd c1 35 53 3e
       0.5670339 0.29612514 -0.05346522 0.20625974
000120 e6 64 85 3e 76 6c 33 3e 20 0e 81 3e f1 c3 ab 3c
       0.26053542 0.17521843 0.2520609 0.020967456
000130 4b 43 91 bd 4c b1 de bd f5 16 00 bd 28 86 2c 3e
       -0.07092913 -0.108736604 -0.031271894 0.16848052
000140 b4 32 06 bf 5a b7 0a bf 6b bb ed be 54 12 48 3e
       -0.52421117 -0.5418602 -0.4643205 0.19538242
000150 a4 5c 58 be 6a 1d f4 3d e5 da bc 3d b8 43 11 be
       -0.2112909 0.11919673 0.09221438 -0.14185989
000160 9f da 38 3e ac 7a 64 3d 3b ce e1 3d f4 40 0c be
       0.18052147 0.05578105 0.110256635 -0.13696653
000170 27 7c d3 bd fb 23 c7 3d 11 32 e9 bd 61 b2 c0 bc
       -0.103264146 0.097236596 -0.113865025 -0.023522558
000180 03 d5 6f be 31 e0 9c be f0 65 44 be 50 7b 28 be
       -0.23421101 -0.30639794 -0.19179511 -0.1645329
000190 19 e6 f2 3d 07 81 0c bd 64 d9 3a 3b 60 09 4d be
       0.11860294 -0.034302738 0.0028510923 -0.20023108
0001a0 eb 01 2e 3d 70 be 81 be 37 17 55 be 0d 96 4a be
       0.042482298 -0.25340605 -0.20809637 -0.19783802
0001b0 44 42 2a be 62 4e 68 be 11 b9 8e bd 04 5c fd 3e
       -0.16626841 -0.2268615 -0.06968892 0.49484265
0001c0 56 1d 92 be 56 fe 9c bd a6 dc e0 3e ac b0 81 3e
       -0.28538007 -0.07665698 0.4391834 0.25330102
0001d0 c9 05 3c be 56 e7 e2 bd 8c 23 d7 ba 0e d5 5d bd
       -0.18361582 -0.1107928 -0.0016413792 -0.054158263
0001e0 db ee e7 bd 5f 00 46 3e 12 d3 63 3e 9a ac c6 3d
       -0.11324855 0.19336079 0.22248486 0.0970089
0001f0 8c 29 16 3f 08 dd 0c 3f 7e 31 00 3f 8f ce 61 3e
       0.58657146 0.55024767 0.5007552 0.22051452
000200 59 5f 1e 3e 93 ec 29 bd c4 0c 82 bd a3 3a d5 3d
       0.1546606 -0.04148538 -0.06350091 0.10411575
000210 68 ad b9 bd b3 ef e5 be 84 59 a9 3e 72 a7 98 3e
       -0.09066278 -0.44909438 0.33076108 0.2981525
000220 39 9d 1b bf 0f 4e ba be d7 73 20 3c be 17 cd bd
       -0.6078678 -0.3638768 0.009793243 -0.10014294
000230 6f f1 86 3d b1 83 4d 3e 44 4b 04 bd ca cc 72 3a
       0.065890186 0.20069768 -0.03229834 0.00092620833
000240 14 6d 29 3d a2 a9 36 3d b4 17 72 be 23 69 a6 bd
       0.04136379 0.04459537 -0.23641855 -0.08125522
000250 44 86 cd be f0 96 6a 3d 04 85 06 be 41 c2 b6 bb
       -0.401415 0.05727285 -0.13136679 -0.005577356
000260 03 b3 d8 3c 23 08 a4 3c 40 d8 e6 3d f5 69 3e be
       0.026452547 0.020023411 0.11271715 -0.18595107
000270 e1 4b c5 3e e4 c9 7c 3e d1 a3 9b 3c 69 af 26 3b
       0.38534454 0.2468639 0.018999012 0.0025434142
000280 43 a0 2b 3e 6e 71 1a 3e 04 51 70 3e 95 df 0d 3d
       0.16760354 0.15082332 0.23468405 0.034637053
000290 58 42 bb bd bb af 3a 3e cb 58 27 be 75 ea 6e 3e
       -0.091435134 0.18231098 -0.16342466 0.23331626
0002a0 44 57 e7 be fa cb 8a be 07 6a ec be bd 25 c2 bd
       -0.45183766 -0.27108747 -0.46174642 -0.09479854
0002b0 84 da e0 3b d0 7c 24 3e 38 cc 56 bd 91 c5 12 bc
       0.0068619866 0.16063237 -0.052440852 -0.008958236
0002c0 0d d8 71 3e e8 ff 47 3d 90 8b dc 3e b8 35 c5 3d
       0.23617573 0.048828036 0.43075228 0.09629387
0002d0 cd f9 69 bd 4e 81 c8 3c 54 4a 86 3c c9 a8 66 3e
       -0.057122994 0.02447572 0.016392864 0.22525324
0002e0 5c 77 58 bd 97 7b 00 be 03 bd 7d 3e e3 7e 72 bd
       -0.052848205 -0.12547146 0.24779133 -0.05920304
0002f0 74 a2 3d bb 1e cc ac 3e 6c 7d 28 bf 96 06 90 be
       -0.002893594 0.3374948 -0.6581638 -0.28130025
000300 e6 dc db be f5 8a 3b 3e ef 1a ac bd df f9 91 3c
       -0.4294197 0.18314727 -0.08403575 0.017819343
000310 97 38 51 3e dd 25 f2 bd ed b9 5e bd 56 db ee be
       0.20431744 -0.11823628 -0.05437653 -0.46651715
000320 d5 0c 03 3f 25 20 88 3c 60 65 a5 be b0 06 95 be
       0.51191455 0.01661689 -0.32303905 -0.29106665
000330 0a 10 8e 3e f7 40 26 bd ac 1f f0 3d ee 42 45 3e
       0.27746612 -0.0405893 0.11724791 0.19263813
000340 52 ad 1f 3e 2b 7b 73 be 42 50 a8 bd 08 29 20 bd
       0.1559346 -0.23777454 -0.08218433 -0.03910163
000350 16 08 b9 be e4 27 b4 be 9b 1c e9 be 0f 0b 48 3e
       -0.36138982 -0.35186684 -0.45529637 0.19535469
000360 4b 5b ad be 29 19 58 bd 1e ac a2 3d c5 6f 21 be
       -0.33858714 -0.05275837 0.07942985 -0.15765293

fc1.bias f4 [10]
000000 bf d1 30 3e 05 e4 76 3e 7b c3 63 bc 09 db 2d be
       0.17267512 0.2411042 -0.013901587 -0.16978087
000010 58 14 2f 3e 7b ce 3e 3e ef b6 f9 bc 80 06 49 be
       0.17097604 0.18633454 -0.030482737 -0.19631386
000020 76 4c 9e 3d 0a 4a 15 bd
       0.077294275 -0.036447562

fc2.weight f4 [10, 10]
000000 91 f2 8c bd 8c bc c9 3d d7 9b ae bd 0b 32 26 3f
       -0.06882203 0.098504156 -0.08525818 0.6492011
000010 27 e0 bd 3e cd 05 a4 3c 6b b5 b6 3b 27 88 81 3e
       0.37085077 0.020022297 0.005575826 0.25299188
000020 ea 37 fe bd eb 92 aa be 7e 79 2d be 17 fa 66 3e
       -0.124130085 -0.33315215 -0.16940877 0.22556339
000030 70 5d f8 3e c6 02 57 bf ff 75 2c 3d ad 55 82 be
       0.48508787 -0.83988607 0.042104717 -0.2545599
000040 49 a9 d6 3e 71 96 46 3e f7 19 a3 be 0b 6d 68 3e
       0.4192603 0.19393326 -0.31855747 0.22697847
000050 6f 23 5c 3e 58 f0 d6 bd ea 52 fb 3e 92 2e e7 3e
       0.21497892 -0.10495061 0.49086696 0.45152718
000060 38 1e ff 3e 32 ae 2c be a0 60 a8 3e eb 0b b0 3e
       0.49827743 -0.16863325 0.3288622 0.34384093
000070 81 38 72 be 91 b8 04 3f 82 2c f9 be 51 04 c3 bd
       -0.23654367 0.51844126 -0.4866677 -0.09522308
000080 db b5 a7 be 8d 9d 35 3e aa 45 16 be a5 82 f2 3e
       -0.32755932 0.17735882 -0.14675012 0.473653
000090 a3 b4 7b be 62 85 9b 3e cf d6 98 3e 8c 5d 18 be
       -0.24580626 0.303752 0.29851386 -0.14879435
0000a0 72 97 b4 be 80 7f 6f 3e c6 17 26 3e 68 e9 27 3d
       -0.35271794 0.23388481 0.16220006 0.040994078
0000b0 60 0d 65 be ee c7 80 be 2d 28 a9 be 03 f1 6e be
       -0.22368383 -0.25152534 -0.33038464 -0.23334126
0000c0 40 96 75 3e d1 ed 9d bc cb 0e 7b 3e 3e e4 c5 3e
       0.23983097 -0.019278439 0.24517362 0.38650697
0000d0 d7 c6 9f bc 6d ee f9 be 84 53 1b be 49 cc 2b 3f
       -0.019503994 -0.48814717 -0.15168577 0.6710859
0000e0 0f 7d 53 3e 98 29 c2 bd 85 f1 22 be 61 0b 02 be
       0.20653175 -0.0948059 -0.15912445 -0.12699653
0000f0 e3 b2 40 3e 43 90 bd 3e d9 bf ab 3e 2b 52 96 3d
       0.1881824 0.37024125 0.33544806 0.07339891
000100 34 17 f7 3d 5b f2 54 be 7b 42 86 bd 03 77 99 3e
       0.120649725 -0.20795576 -0.06555649 0.2997361
000110 ad bd 9c bd ca 12 dd 3e 62 74 1e 3e 49 a5 cf bd
       -0.07653365 0.43178397 0.15474084 -0.101389475
000120 7f 1b 2e 3e b5 5c ce 3c 1e cf 9e 3e ac 66 e6 be
       0.17002676 0.02519069 0.31017393 -0.45000207
000130 1f 35 4f 3e e3 b6 11 3e 2c f9 99 3e 2c 68 a4 3c
       0.20235108 0.14229922 0.30072916 0.020069204
000140 15 fd e3 3d fe 30 f7 3d 21 a0 17 be fd 23 01 bf
       0.11132256 0.120698914 -0.14807178 -0.5044554
000150 1a 63 f1 be a2 03 03 3e e4 65 05 be 8c 11 4d 3c
       -0.4714592 0.12794355 -0.1302715 0.0125163905
000160 9d 89 59 3e 49 48 5a bc ee 59 33 3e ce 8b 5d be
       0.21243902 -0.013322898 0.17514774 -0.21635363
000170 e4 77 d2 3e 1f 28 74 3d 55 97 bb 3e b0 d0 fd be
       0.41107094 0.059608575 0.36638895 -0.49573278
000180 69 45 29 3d 52 a4 b6 3e 1f dc 5c 3e 5a 55 0e 3e
       0.04132596 0.3567224 0.21568345 0.13899747

fc2.bias f4 [10]
000000 10 b0 17 3d 34 52 df bc d7 b1 77 be ba 07 ef 3e
       0.03703314 -0.027260877 -0.24188934 0.46685582
000010 8d 86 66 be 25 f4 96 bc e5 94 23 be 49 e8 95 3e
       -0.22512265 -0.018426964 -0.15974768 0.29278782
000020 7f 8c 7e 3e 72 37 de 3d
       0.24858283 0.10850419

fc3.weight f4 [2, 10]
000000 37 4e ae 3e c4 c2 1c be a0 e1 1f ba 6e f1 13 3f
       0.34044048 -0.15308672 -0.00060989894 0.5779027
000010 79 e9 eb 3d 38 b7 c3 be 7b e5 61 bd 51 f0 97 bd
       0.11519141 -0.38225722 -0.05515049 -0.074188836
000020 79 b5 3a be a4 50 50 3e 5d 67 06 bf 97 c0 91 3e
       -0.18233289 0.20343262 -0.5250147 0.28467247
000030 44 75 f4 3e 44 3e d2 be 8f 10 19 be 6b 0d b2 3e
       0.47745717 -0.4106313 -0.14947723 0.34775862
000040 83 e9 c1 3e ac a2 de bd cf 83 29 3d b9 c3 b4 3e
       0.37873468 -0.10870871 0.041385468 0.35305575

fc3.bias f4 [2]
000000 c9 ec a7 3e 67 d4 90 be
       0.3279784 -0.2828705
